…
2024-01-07 18:09:40.295861: I tensorflow/core/common_runtime/gpu/gpu_device.cc:1639] Created device /job:localhost/replica:0/task:0/device:GPU:0 with 2475 MB memory:  -> device: 0, name: NVIDIA GeForce GTX 1650 Ti, pci bus id: 0000:01:00.0, compute capability: 7.5
Found 2927 images belonging to 4 classes.
(32, 256, 256, 3)
Found 730 images belonging to 4 classes.
Found 405 images belonging to 4 classes.
Model: "sequential"
_________________________________________________________________
 Layer (type)                Output Shape              Param #
=================================================================
 conv2d (Conv2D)             (None, 254, 254, 32)      896
 max_pooling2d (MaxPooling2  (None, 127, 127, 32)      0
 D)
 conv2d_1 (Conv2D)           (None, 125, 125, 64)      18496
 max_pooling2d_1 (MaxPoolin  (None, 62, 62, 64)        0
 g2D)
 conv2d_2 (Conv2D)           (None, 60, 60, 64)        36928
 max_pooling2d_2 (MaxPoolin  (None, 30, 30, 64)        0
 g2D)
 conv2d_3 (Conv2D)           (None, 28, 28, 64)        36928
 max_pooling2d_3 (MaxPoolin  (None, 14, 14, 64)        0
 g2D)
 conv2d_4 (Conv2D)           (None, 12, 12, 64)        36928
 max_pooling2d_4 (MaxPoolin  (None, 6, 6, 64)          0
 g2D)
 conv2d_5 (Conv2D)           (None, 4, 4, 64)          36928
 max_pooling2d_5 (MaxPoolin  (None, 2, 2, 64)          0
 g2D)
 flatten (Flatten)           (None, 256)               0
 dense (Dense)               (None, 64)                16448
 dense_1 (Dense)             (None, 4)                 260
=================================================================
Total params: 183812 (718.02 KB)
Trainable params: 183812 (718.02 KB)
Non-trainable params: 0 (0.00 Byte)
_________________________________________________________________
Epoch 1/36
[34m[1mwandb[39m[22m: [33mWARNING[39m The save_model argument by default saves the model in the HDF5 format that cannot save custom objects like subclassed models and custom layers. This behavior will be deprecated in a future release in favor of the SavedModel format. Meanwhile, the HDF5 model is saved as W&B files and the SavedModel as W&B Artifacts.
…
